MLP訓練和推理/184.pth (torch, 17120 bytes, 6 tensors)

fc1.weight f4 [64, 16]
000000 2c d1 7d be d0 f2 49 be 1c 4c db bd fa 32 72 be
       -0.24786824 -0.19721532 -0.10707876 -0.23652259
000010 00 89 68 bc 70 38 61 be 00 32 0b 3e 54 8c f9 3d
       -0.01419282 -0.21994185 0.13593292 0.121849686
000020 e8 5f 41 3d 26 95 46 3e 60 93 c8 bc d6 56 19 3e
       0.047210604 0.19392833 -0.024484336 0.14974532
000030 0e 48 33 be b8 ca 49 bd ec 42 64 be b0 46 a6 bc
       -0.17507955 -0.049265593 -0.22291154 -0.020297378
000040 12 17 26 be 4c fb 65 3e c0 d3 31 3e 28 ed 3f 3e
       -0.16219738 0.22459143 0.17365932 0.18742812
000050 b0 de 97 3d 46 0b 12 be 4e 0b 66 3e e4 cc 79 be
       0.07415521 -0.14262113 0.2246525 -0.24394566
000060 10 64 23 be cc e3 1f be bc 3a d4 bd d0 2e 4c 3d
       -0.1595614 -0.15614241 -0.10362765 0.04984933
000070 d4 ea 41 be 7c 39 45 be f8 db f4 bd 7e 3f 1c 3e
       -0.18937236 -0.1926021 -0.11956018 0.15258595
000080 88 a5 38 be fe 9a 65 be 9a e0 5d be 98 f2 fb bd
       -0.18031895 -0.22422406 -0.2166771 -0.123021305
000090 ec 86 86 bd 30 c9 7d be 48 b6 ef bd 40 98 9d 3b
       -0.06568703 -0.24783778 -0.11704689 0.0048094094
0000a0 e8 cc 28 3d b0 cc 12 bd 80 36 e8 bc 0a 8c 26 be
       0.04121104 -0.035839736 -0.0283463 -0.16264358
0000b0 7c 26 03 3e c8 af 76 bd 10 08 2f be a8 9a 76 bd
       0.1280765 -0.06022623 -0.1709292 -0.060206085
0000c0 e2 31 b1 bc 14 3a 7a 3e b1 62 12 3e 4d a4 b4 bd
       -0.021630231 0.24436218 0.1429546 -0.088204004
0000d0 94 17 b7 bc 47 ce 6d 3e 83 be 31 3e 52 75 9a 3d
       -0.02235011 0.2322322 0.1735783 0.07541908
0000e0 63 4c 9c bd dc a8 62 3e f6 a0 f3 3d ea 9f cc bd
       -0.07631757 0.22134727 0.11895935 -0.09991439
0000f0 c7 1d 43 3e f1 5c e5 3c eb bf 36 be 8d a0 d0 bd
       0.19054328 0.02799842 -0.17846648 -0.10186873
000100 09 13 2b be ce 2c 3f be 31 70 cc 3c 91 9d 23 be
       -0.1670648 -0.18669435 0.02495584 -0.15978076
000110 60 f2 1c 3e 5e 51 04 3e 03 e8 95 3d 5c 30 67 3e
       0.15326834 0.12921664 0.07319643 0.22577041
000120 64 ed bf bd 82 f5 c5 3c 20 b0 30 3e 7d fa d6 3d
       -0.093714505 0.024164919 0.17254686 0.104969956
000130 4a 1e 4e 3d 85 5d 67 3e 67 25 8f 3d 3c e4 3b 3e
       0.050321855 0.22594269 0.06989556 0.18348783
000140 16 9f 5c be 12 99 5c be 6c 10 67 be 60 dd 67 3c
       -0.21545061 -0.21542767 -0.22564858 0.014151901
000150 f8 3e 59 3e 38 68 5f be 8c b9 cb 3d 4a ea 61 be
       0.21215427 -0.218171 0.099475 -0.2206203
000160 e0 20 2a be 04 98 ae bd c0 32 d0 bd 80 3a 97 3d
       -0.16614103 -0.085250884 -0.1016593 0.07384205
000170 e0 a8 56 be e4 27 7d 3e 90 48 15 3d 2c 7d b2 3d
       -0.20962858 0.24722248 0.036446154 0.08715281
000180 60 34 30 be f2 00 0a 3e 5c 30 7c bd b4 a4 02 be
       -0.1720748 0.13476923 -0.061569557 -0.12758142
000190 d4 15 21 3d cf 8a ce 3d 4d b4 be 3c b5 ac b9 bd
       0.039327458 0.100850694 0.023279333 -0.090661444
0001a0 b4 51 31 3d d9 a6 cc bd e5 e3 b3 bd b9 c3 c4 bd
       0.04329081 -0.09992761 -0.08783702 -0.09607644
0001b0 16 40 15 3e ca 35 36 be c7 c6 d7 3d 7a 6a 01 3e
       0.14575228 -0.17793956 0.10535961 0.12638274
0001c0 4c 19 2a be 30 72 42 be a8 7a 2a be a0 8e 58 be
       -0.16611212 -0.18988872 -0.16648352 -0.21148157
0001d0 76 ee 56 3e 94 a7 61 3e 50 fa 0e bd e0 0b 70 3e
       0.20989403 0.22036582 -0.034906685 0.2344203
0001e0 90 07 91 3d 4a 23 7b be 1e 3c 6a be ac 3b f7 bd
       0.070815206 -0.2452518 -0.22874495 -0.120719284
0001f0 1e 5b 7f be 20 e3 ea bd a0 79 8a 3d 40 b6 b7 bb
       -0.24937102 -0.11469102 0.067614794 -0.0056064427
000200 b6 8e a0 bc 73 5b 2d 3d 27 e9 81 3e 3d 44 ef 3c
       -0.0195993 0.04232354 0.25373194 0.029207343
000210 f9 70 1c 3e 17 21 12 bd e1 00 25 be f0 1f 9b 3d
       0.1527747 -0.03567609 -0.16113617 0.07574451
000220 72 6d 11 3e e2 38 30 3e 5a e0 55 be 5f 9a dd bb
       0.14201906 0.17209199 -0.20886365 -0.0067627872
000230 05 ee 5a be 83 a9 e2 3c 2b 6b 01 3d 9e cf d5 3d
       -0.2137986 0.02766872 0.031596344 0.104399905
000240 4a 0f 91 bd d5 b7 af bc 19 3c 9b 3d a0 05 69 be
       -0.07082994 -0.021449963 0.07579822 -0.22756052
000250 b0 45 0d 3e 02 1d 82 3e e8 82 27 be 98 3f 84 3e
       0.13796115 0.25412756 -0.1635853 0.25829768
000260 cc 16 58 3d 3d 66 86 3e 2c 9f 6e 3e 97 ef 4d be
       0.052756116 0.26249877 0.23302907 -0.20110928
000270 95 13 50 3e 6a 00 ab 3c 9b 60 91 3d 6c cc a5 bd
       0.2031997 0.02087422 0.07098504 -0.08095631
000280 dc 31 4d be f0 fb c3 3c 08 70 8e 3d ae bd 00 3e
       -0.20038551 0.023923844 0.06954962 0.12572357
000290 3a bc 56 be d8 b6 77 be f8 a0 f3 3d 78 01 4d bd
       -0.2097024 -0.24190843 0.11895937 -0.05005023
0002a0 00 f5 71 bb 90 d8 84 bd 00 d6 07 3a 38 14 29 3d
       -0.0036919713 -0.064866185 0.000518173 0.041279048
0002b0 8e 6c 6c be 84 d7 bc 3d b0 3a e1 3c 80 68 ec 3d
       -0.23088285 0.09220794 0.027493805 0.11543369
0002c0 4a 70 ff bd 00 70 3e 3e d8 6b 2c 3e 0f 4f fa bd
       -0.12472589 0.18597412 0.16838014 -0.122221105
0002d0 df 53 64 3e 12 60 0c 3d 77 ad 66 3e 20 27 6d 3e
       0.2229762 0.034271307 0.22527109 0.23159456
0002e0 43 4e 30 3d 45 46 38 3d 57 68 a5 3d 84 61 27 3e
       0.043043386 0.04498889 0.08076542 0.16345793
0002f0 5b 91 65 be 65 1d 62 3b 21 bc 73 3e 8a 23 34 be
       -0.2241873 0.0034502384 0.23802234 -0.17591682
000300 00 34 d9 bd 9c 3c 7a 3d 87 5f fc 3d 89 15 2c 3e
       -0.10605621 0.061092958 0.12322908 0.1680509
000310 a9 02 48 3d 91 e0 ba 3d 5f be a1 bd bf c5 8a 3e
       0.048830662 0.09124864 -0.078976385 0.27103993
000320 64 c6 04 be a0 58 49 3e dd e4 2c 3e 26 7c 80 3e
       -0.12966305 0.19662714 0.1688418 0.25094718
000330 37 65 83 3e 2d e2 58 bd d3 d7 4e 3e b9 ed 1e be
       0.25663158 -0.052950073 0.20199518 -0.15520371
000340 b8 86 32 3e b8 95 1d be 06 01 2e be ac 40 2d be
       0.17434204 -0.15389144 -0.16992578 -0.16919202
000350 90 11 79 3e f0 47 97 3d cc 67 32 be d0 0c 40 be
       0.24323106 0.07386768 -0.17422408 -0.18754888
000360 40 c9 d3 3c 10 de 5c bd b0 62 85 3d 3c 1d 21 3e
       0.0258528 -0.053922713 0.06512964 0.15733808
000370 de ba 21 be 18 7d 68 be 00 02 d3 3c 6a ad 2a 3e
       -0.1579394 -0.2270397 0.02575779 0.16667715
000380 64 1e 35 3e 80 c7 a9 3c b7 c9 2b bd cc a5 d5 3d
       0.17687374 0.020725012 -0.041940417 0.10432014
000390 13 21 4b 3e a6 6c 44 be 75 e9 60 3a b2 88 5a 3e
       0.19836836 -0.19182071 0.00085797097 0.21341208
0003a0 1a 4b 5e 3e d6 5c 83 3e 23 98 f5 3d 8d a1 89 3e
       0.21708336 0.25656766 0.119919084 0.26881066
0003b0 98 6b 5e be 4a 6a 8c 3d 22 bd 53 3d 0d d3 43 3e
       -0.21720731 0.068562105 0.051694043 0.19123478
0003c0 44 22 ae 3d 5d e4 47 3e bd 8e 3d be 33 0e f8 3b
       0.085026294 0.19520707 -0.18511482 0.007570052
0003d0 f3 d0 03 3e e4 ae 46 3e 91 3e c1 3d 30 66 49 3e
       0.12872677 0.19402653 0.09435762 0.19667888
0003e0 5e 7b 30 bd 1b f0 57 3c a1 9f 89 3e 3a 6d 4d 3e
       -0.043086402 0.013179804 0.268796 0.20061198
0003f0 18 9c 57 3e db 0e 3c be e6 8d d4 3c 80 55 3e be
       0.21055639 -0.18365042 0.025946569 -0.18587303

fc1.bias f4 [64]
000000 70 ab 34 bd 78 5d 20 3e 7c 97 c6 bd 33 60 f4 bb
       -0.044108808 0.15660655 -0.09696862 -0.007457757
000010 4e 5f ff bd 8c 08 70 be 02 72 cb bb 0c 29 45 3e
       -0.1246935 -0.2344076 -0.006208659 0.1925394
000020 16 65 78 3e eb af bd 3d ae 89 0a 3e b6 af a8 3d
       0.24257311 0.09262069 0.13529083 0.08236639
000030 18 f4 46 be e0 ad 52 3c 9b 10 02 3e 8c d0 15 be
       -0.19429052 0.012858838 0.12701647 -0.14630336
000040 c0 e1 b8 bd 66 5d 00 be 0d 9a 5e bc b7 50 89 3c
       -0.090274334 -0.12535629 -0.013586533 0.01676212
000050 20 f4 31 be 34 cb a0 3d 10 71 2a 3d 88 5f 3e 3e
       -0.17378283 0.07851258 0.04161173 0.1859113
000060 a6 4b 0e be 13 29 1d bd e2 28 6c 3e a4 a3 35 3e
       -0.13896045 -0.03836925 0.2306247 0.17738205
000070 d5 c8 53 bd 1e 42 cf bd 8b 67 12 be 93 09 a9 ba
       -0.0517052 -0.10120033 -0.14297311 -0.001289653
000080 e8 fd 4e 3e 5d 34 20 be 00 8d 4e bb e2 dd 7f 3e
       0.20214045 -0.15644975 -0.0031517148 0.24986985
000090 d4 5e 3b 3e 7c 58 68 be fa c3 7a 3e 53 35 4b 3e
       0.18297893 -0.22690004 0.24488822 0.1984456
0000a0 f0 d5 58 3e 48 0b 88 bd 9a 6b df 3d 04 ab 06 3e
       0.2117536 -0.06642777 0.10909195 0.13151175
0000b0 76 4e b6 bd bf 61 47 3d 7c 87 fc 3d f8 8d 35 3e
       -0.08901684 0.048677202 0.12330529 0.17729938
0000c0 c8 9c 7d 3e d4 34 05 be c5 ee 84 bc f1 ad 4d 3d
       0.24766839 -0.13008434 -0.016227135 0.05021471
0000d0 bd 56 48 3d 6d 4f aa bd 92 eb 1a 3e c8 fe 2a be
       0.048910845 -0.083159305 0.15128925 -0.16698754
0000e0 16 1f 49 be 79 61 9b bb f8 ed 07 3e bd c4 33 3e
       -0.19640765 -0.0047418443 0.13274372 0.17555518
0000f0 cb bb 86 bd 21 dd 34 3e b8 64 3f be 88 cc 5a be
       -0.065787874 0.17662479 -0.18690765 -0.21367085

fc2.weight f4 [32, 64]
000000 a8 75 ba 3c 64 07 17 3d a0 d3 cc 3c 19 c7 df 3c
       0.022761181 0.036872283 0.025003254 0.027316617
000010 00 35 0d 3e 12 e2 f4 bd 68 5b 06 3d 78 50 ad 3c
       0.13789749 -0.11957182 0.032802016 0.021156535
000020 fe 68 ba 3d 54 f7 66 bd 20 03 18 bd 1b f1 35 bd
       0.09102057 -0.056388214 -0.037112355 -0.04441939
000030 f2 4d c3 3d 64 29 26 3d 48 9d 83 3d 6d a1 1b 3e
       0.09536351 0.040566817 0.064264834 0.15198298
000040 d4 11 20 3e b4 97 c7 bd ad 06 2d bc 2b 34 85 3d
       0.15631801 -0.09745732 -0.010560674 0.06504091
000050 3e 6c bf 3c d0 0f 09 bc 34 cb bb 3d a2 23 97 3d
       0.023367044 -0.008365586 0.09169617 0.07379843
000060 2f e7 d2 3d a1 c1 34 3d 93 c2 cb 3d a4 4b a6 bd
       0.10298001 0.04412997 0.099492215 -0.08119896
000070 2f 6f 03 3e 14 58 38 3d 02 6b d7 3d 8c 17 83 3d
       0.12835382 0.045005873 0.10518457 0.064009756
000080 cc e6 7e bd a2 ec b8 3d 30 2d cc 3d c0 2c f8 3b
       -0.062231824 0.09029509 0.09969556 0.007573694
000090 20 2c 85 bc 43 f1 98 bd 24 3e 0b 3e 70 76 71 3d
       -0.016256392 -0.07467892 0.13597924 0.05895084
0000a0 19 e6 8e bd 18 56 d2 bd 95 38 82 bd b5 30 e1 3d
       -0.069774814 -0.10270327 -0.063584484 0.10995618
0000b0 02 60 56 bd f3 c5 0c 3c ee 10 ba bd 6b b8 5f bd
       -0.052337654 0.008592117 -0.0908526 -0.054619234
0000c0 20 c0 1e 3e 20 3b a9 bd 1d 68 02 3e 08 21 4d 3d
       0.15502977 -0.0826323 0.12735029 0.05008033
0000d0 0f ec 2c bc f7 ea ad bc 80 d0 d5 3a a9 a4 a2 3c
       -0.010554328 -0.021230204 0.0016312748 0.019853907
0000e0 20 13 91 3d f4 4c 04 3d ec 50 f4 3d 3c 76 3e bd
       0.07083726 0.03229995 0.11929497 -0.046499476
0000f0 1f dc dd bd 4f cb 65 3d 20 16 8e 3b 82 89 c2 3d
       -0.108330004 0.056102093 0.0043361336 0.09498884
000100 a0 34 d3 3c d0 33 2b bd e0 f1 99 bc b5 96 03 3e
       0.02578193 -0.04179746 -0.018792093 0.12850459
000110 99 b5 70 3d e0 ac f7 bb d8 f2 c9 3d 5e 87 ef 3d
       0.058766935 -0.00755845 0.09860772 0.11695741
000120 b9 db 86 3d 4c 37 0a 3d b2 bf b5 bd 3d 5e a7 3d
       0.065848775 0.03374414 -0.088744536 0.081722714
000130 7a 43 09 bc 9e 35 fc bd 08 73 e4 bc 9d 8f 80 3d
       -0.008377904 -0.12314914 -0.027886882 0.06277392
000140 29 d4 05 3e 36 cb 90 bd 3f 45 04 3e 98 98 8c bd
       0.13069214 -0.070700094 0.1291704 -0.068650424
000150 23 3b 74 3d 98 8f ec bd 32 aa ec 3d e8 34 85 3d
       0.05962671 -0.11550826 0.115559 0.06504232
000160 12 3e a4 3d c4 d3 df bd a1 3c ce 3d a6 b3 be bd
       0.080196515 -0.10929063 0.10070158 -0.09311609
000170 5e 4f 1c 3e 3b 44 0f bc 09 e5 fa 3d 88 08 9f bc
       0.15264651 -0.008744295 0.12250716 -0.019413248
000180 28 5a 96 3c 96 dc f7 3d 8e 75 d0 3d 44 68 a6 3d
       0.018353537 0.1210262 0.10178672 0.08125356
000190 54 c3 8f bd 58 fe 91 bc 93 42 12 3d 39 27 9f 3d
       -0.07019678 -0.017821476 0.03570802 0.07771153
0001a0 06 46 06 3e 02 63 ab 3d 5f 17 9d 3d ec e8 02 3d
       0.1311265 0.083684936 0.07670473 0.031960413
0001b0 9a ef 39 bd 58 d6 1d 3d 90 fa e8 bc a9 aa 89 3d
       -0.045394517 0.038534492 -0.02843979 0.06722004
0001c0 13 1c 00 bd f0 3e a5 bd 56 6b f4 3d ca 2c c2 bc
       -0.031276774 -0.08068645 0.11934535 -0.023702998
0001d0 1a a6 11 3d 29 e2 a4 3c f0 ae fc bc c6 21 02 3e
       0.035558797 0.020127373 -0.030845135 0.12708196
0001e0 8d 13 9e bd e4 b0 0b 3e 80 b2 18 3c c4 2b b9 3d
       -0.07718573 0.13641697 0.0093199015 0.09041551
0001f0 5e c6 bc bd 1c 45 54 3d dc 80 20 3d 51 bb 3e bc
       -0.09217523 0.05182372 0.03918539 -0.011641339
000200 58 4b 7b 3d 38 8e 68 bd 48 63 c5 bd 7b c2 7b bb
       0.06135115 -0.056776255 -0.09638077 -0.003841548
000210 8d 80 a8 bd b0 75 27 bc 87 45 b0 bb 50 0b 13 bd
       -0.08227644 -0.01022093 -0.005379382 -0.03589946
000220 ea 6b cf 3d da 82 ca 3d 08 73 f1 bc 3e ed e2 3c
       0.10128005 0.09888239 -0.029473796 0.027701017
000230 d4 c1 84 3d 5e fa c2 bd 7c 58 2d 3d 23 1e a5 3d
       0.06482282 -0.0952041 0.042320713 0.08062389
000240 fa 6c 8f bc c0 fe 94 bb b4 c8 9e 3d d8 fc ab 3d
       -0.017508019 -0.00454697 0.07753125 0.083978355
000250 e0 56 d1 bd 50 e7 00 3c 94 e0 f9 bd a0 89 ef bb
       -0.10221648 0.007867649 -0.12201038 -0.0073101074
000260 0b ef 9f 3d 6d 96 af 3d 47 06 de 3d e0 c1 2a bd
       0.07809266 0.08573613 0.10841041 -0.0416888
000270 b5 24 89 bd 59 2a c5 bd e2 0a fc 3d c9 22 fe 3d
       -0.066964544 -0.09627218 0.12306763 0.124089785
000280 cc af f9 3d 37 b8 9d 3d 84 5d 8b 3d 10 0e 64 3c
       0.12191734 0.07701152 0.06804946 0.013919368
000290 b2 8b bb bd c5 4f 8e 3d b8 b1 a5 bd db eb 4a bd
       -0.09157504 0.069488086 -0.08090538 -0.049541336
0002a0 c4 a4 8f 3b 40 1b a6 3c b1 09 91 bc c8 36 66 bc
       0.0043836553 0.020276666 -0.017704817 -0.014051147
0002b0 af 17 a6 bd 24 56 81 bd 6c 22 06 3d ce 07 96 bd
       -0.08109986 -0.06315258 0.03274767 -0.073257074
0002c0 74 ff 1a 3e d4 0c c3 bd 45 9c 66 3b e1 ee 92 bd
       0.1513651 -0.09523931 0.0035188359 -0.07174469
0002d0 e2 7d e5 3c a4 00 9c 3d a8 5a 0e bd ac 58 a2 3c
       0.028014127 0.0761731 -0.034754425 0.019817673
0002e0 cc a9 85 bd 50 44 13 3d 40 51 77 bd 21 fc d7 3d
       -0.06526527 0.03595382 -0.06038022 0.10546137
0002f0 5d 6a 01 3e d3 95 1e 3d 62 f9 9d bd 53 62 93 bb
       0.1263823 0.038717102 -0.077135816 -0.004497805
000300 04 c1 cc 3d 3c 90 28 3d ae e9 e5 bd 75 d1 06 3d
       0.09997752 0.041153178 -0.112262115 0.032914598
000310 94 02 f2 3c 98 b0 0b bd a8 a2 78 bd 50 9d 6b 3c
       0.029542245 -0.03410396 -0.060701996 0.014380768
000320 e0 f4 d3 bd ef 18 cb 3d b0 a7 f8 3c dd 5f a8 bd
       -0.103494406 0.09916865 0.030353397 -0.082214095
000330 bf 59 97 3d 10 68 1a bc 11 d3 d2 3d 1a 38 07 bd
       0.073901646 -0.0094242245 0.10294164 -0.033012487
000340 2d c8 e4 bd 68 09 a3 bc fe c5 c5 3d 24 54 b3 bd
       -0.11170993 -0.019901946 0.09656905 -0.08756283
000350 54 05 95 bc 0c 8b 37 3d 00 4c 9c bc c8 59 02 bd
       -0.018191017 0.04481034 -0.019079208 -0.031823903
000360 e3 05 7c bd 51 c9 92 3d 78 a5 8b bb 70 a3 89 3c
       -0.06152905 0.07167304 -0.004261669 0.016801566
000370 f8 30 be bd 34 38 df bc bb d1 23 3d 31 3d 87 3d
       -0.09286684 -0.02724848 0.039994936 0.06603468
000380 00 e0 92 bb 33 2f 6b 3d e4 c5 b2 bd 64 f1 74 bd
       -0.0044822693 0.05741806 -0.08729151 -0.05980052
000390 a0 6f 9a bc 6e 7a f7 bd 62 ea c9 bd f4 44 8d 3d
       -0.018852055 -0.120838985 -0.09859158 0.068979174
0003a0 44 d7 3c bc 00 c8 86 3b 26 6a 15 bd 1c ab c6 bd
       -0.011525933 0.0041131973 -0.036478184 -0.09700605
0003b0 ff 3d 4d bd 7e b0 75 3d 90 c4 af bd d0 dd d2 3c
       -0.050107952 0.05998277 -0.08582413 0.025740534
0003c0 6f 06 ae bd a0 68 ad bd 32 40 a8 bd 51 7b 31 bd
       -0.08497321 -0.08467221 -0.08215369 -0.043330494
0003d0 ff af ca 3d f0 45 8d bc 64 ed 6b bd 89 fa e3 3d
       0.0989685 -0.017245263 -0.05759944 0.1113177
0003e0 14 91 92 3d f5 57 d1 3c cc 5c 1c bd e3 e6 0b be
       0.07156578 0.025554636 -0.038174435 -0.13662295
0003f0 58 e0 bb 3d 4a 97 3c 3d 00 2e 3a 3c 1c eb f1 3d
       0.091736495 0.046042718 0.011363506 0.11812422

fc2.bias f4 [32]
000000 d0 91 37 3c 67 7e 9f bd 7e ae 17 3e 3d 36 0c be
       0.011204198 -0.07787781 0.14812657 -0.13692565
000010 5f f4 70 3c c7 00 07 3e 17 81 6e 3d a2 32 03 be
       0.0147067 0.1318389 0.05822858 -0.12812284
000020 48 1f fe bc 95 cb e0 3d c7 46 69 bd bc ba ee 3c
       -0.031020775 0.1097633 -0.056952264 0.029141776
000030 76 09 32 bd 18 20 6e 3d 08 81 e7 bd 1e 7a d2 3c
       -0.043466054 0.058136076 -0.11303908 0.025692996
000040 17 13 ed 3d a0 68 56 bc 12 e2 d3 3d b4 22 da 3d
       0.11575907 -0.013086468 0.10345854 0.1065115
000050 d4 3f 49 bd 3a c9 78 bd 1c 24 7e 3d 46 e2 b7 bc
       -0.049133137 -0.06073878 0.062046155 -0.022446763
000060 7f b1 19 3e 26 c1 ab 3b 79 55 b8 3a b8 35 01 be
       0.15009116 0.005241531 0.0014063559 -0.12618148
000070 c6 10 8f 3c b4 1b ba bd 76 19 b6 bd 49 f6 73 bd
       0.017464053 -0.09087315 -0.08891575 -0.059561048

fc3.weight f4 [16, 32]
000000 21 54 24 3e fe 0a ee 3d a4 ce 15 3d 4a 9c d9 bc
       0.16047718 0.1162319 0.03657402 -0.026563782
000010 ad 03 63 bd 1e b7 17 3e ba d6 94 3d c7 4c 71 3d
       -0.055423427 0.14815947 0.07267518 0.05891111
000020 ac a4 b5 3d 38 e5 6c bc 37 54 1a 3e 8a 0e fc bd
       0.08869299 -0.014458947 0.15071188 -0.123074606
000030 99 47 f4 3d 21 d9 b0 bd 63 6b 89 3c b7 24 01 bc
       0.11927719 -0.08635164 0.016774839 -0.007882289
000040 3b 89 07 3d 23 b7 6d 3d 2e ca eb bd a5 3b ab bd
       0.033089858 0.05803598 -0.11513172 -0.08360986
000050 77 ba 29 3e 74 a3 8d 3d 2a b5 3d 3e 4b fe bc bc
       0.16575037 0.06915942 0.1852614 -0.023070475
000060 43 fa 20 3e fe c8 b6 bd 46 51 15 bc 81 98 ab 3d
       0.15720467 -0.08925055 -0.009113615 0.08378697
000070 c4 1a 3a 3e c9 92 72 bc 93 e0 4f bc 0a a0 5c 3d
       0.18174273 -0.014805504 -0.01268782 0.053863563
000080 b8 2b 44 bd cb f6 0c 3e 3c 0d de bc 4c d8 99 3d
       -0.047893256 0.13766019 -0.02710592 0.075119585
000090 e1 fc 86 3d b9 ee ea 3d d9 43 8c 3d 7c 16 9e 3d
       0.065912016 0.11471314 0.068488784 0.07719132
0000a0 89 3e cf 3d 4d ad 24 3e 61 f3 a3 bb 2e 29 90 3d
       0.101193495 0.16081734 -0.0050033783 0.070391044
0000b0 8c 57 1b be 4f b5 14 bd 53 b8 1d 3e d3 49 57 3d
       -0.15170115 -0.03630572 0.15402345 0.05256064
0000c0 60 36 d0 3d 01 b8 f1 3a 97 a7 d9 bd 42 96 1f 3e
       0.10166621 0.0018441678 -0.10627668 0.15584663
0000d0 47 2a 0b 3e b2 90 f6 bd 32 6f b9 3d f0 3d 09 be
       0.13590346 -0.12039317 0.09054412 -0.13402534
0000e0 80 fd 0c bd f7 6f 94 3c bf 15 0b be c9 0f cf bd
       -0.034421444 0.018119795 -0.13582514 -0.10110433
0000f0 5f 9a 25 bd 77 df 33 3e d3 86 d3 bd ad 0b bf bd
       -0.040430423 0.17565714 -0.1032845 -0.09328399
000100 28 30 d0 3d 97 e9 af 3d f4 16 27 3c b2 a6 d8 bd
       0.10165435 0.085894756 0.010198344 -0.105786696
000110 60 12 63 3e 15 ee b5 3c f7 e5 1d bd a4 a5 06 be
       0.22174978 0.022208253 -0.03854939 -0.13149124
000120 4b 35 51 3c 26 47 59 bd c2 62 0d 3e 19 9e 59 bd
       0.012769054 -0.053046368 0.13807204 -0.05312929
000130 9f 08 4e 3c 42 a8 eb bc b6 71 aa 3d 91 94 68 bd
       0.012575298 -0.028766755 0.0832247 -0.05678231
000140 9d 65 bc 3c 18 33 a2 3d 78 ff de 3d 3e 59 39 3a
       0.022997672 0.079199016 0.108885705 0.0007070488
000150 92 a6 a9 3d 5f da 91 bd 2e 92 b4 bc 77 17 e0 3c
       0.08283724 -0.07121729 -0.02204236 0.027354939
000160 db cf 3c bd 0d 08 f5 bc 43 9d 27 3e 48 21 0e be
       -0.046096664 -0.029911065 0.16368584 -0.13879883
000170 74 9c 08 3e 59 73 f2 bc d6 3b 3a 3a 12 de f2 3d
       0.13340932 -0.029596018 0.0007104253 0.11858763
000180 3f 42 8d 3d 6b ef ff 3d 3b 08 43 3e d5 ce f0 3d
       0.06897401 0.12496837 0.19046108 0.117582
000190 37 3a 20 3d d9 28 6a 3c f3 aa 5b 3e 71 5e c2 bd
       0.039118018 0.014291965 0.2145193 -0.094906695
0001a0 b2 d2 b8 3c c7 dd ae 3c 6b 01 24 3d 44 4f 62 bd
       0.022561405 0.021345986 0.040040415 -0.055251375
0001b0 aa 00 ab 3d de f6 5b 3a b9 86 0c bd 75 4b 39 3d
       0.08349736 0.0008390973 -0.03430817 0.045237977
0001c0 28 dc eb bd 93 19 ba bd 7e d0 4f bd 27 60 00 3e
       -0.11516601 -0.09086909 -0.050735943 0.12536679
0001d0 8b ce af bd b1 67 82 bd b7 74 0c 3e ac d5 27 bd
       -0.08584317 -0.06367434 0.13716398 -0.040975258
0001e0 0b d7 19 3d 6e e4 96 3d da 9f ca 3b e7 20 fb 3d
       0.037558597 0.07367788 0.0061836066 0.12262135
0001f0 75 57 0b 3e 5b 98 f2 bc d4 b4 dc bd a8 78 27 3e
       0.13607581 -0.029613664 -0.10776678 0.1635462
000200 65 b7 50 3e 79 45 8c bc 37 44 02 3e 0c 63 00 3e
       0.2038246 -0.01712297 0.12721334 0.12537783
000210 4a 49 05 bc 09 10 48 3d 1c 0f 10 3e 1e c4 e5 bc
       -0.008135149 0.048843417 0.14068264 -0.028047618
000220 78 56 f4 bc 00 08 c7 3d 40 5b 34 3e 6a 25 22 3e
       -0.029826388 0.09718323 0.17612934 0.15834585
000230 fb d7 86 bd 87 06 1b 3d 90 05 e5 bd 1b 03 92 bd
       -0.06584164 0.03784802 -0.111827016 -0.071294986
000240 28 ee 2b 3e 3f 66 b2 3d 45 b5 0d bc 6d b2 b3 bd
       0.16790068 0.08710908 -0.008649175 -0.087742664
000250 84 ae 8c bd 8f 41 85 bd 97 cb 82 bd 2e 9c 6f 3d
       -0.06869224 -0.06506645 -0.06386488 0.058498554
000260 94 93 30 3e af f7 f5 3c 60 de 3b 3e 4d dd b0 3d
       0.17243797 0.030025331 0.18346548 0.0863596
000270 98 d9 99 bd cf 8b d7 bd f1 24 ac bd 75 e6 90 bd
       -0.07512206 -0.10524713 -0.084054835 -0.07075206
000280 0a 60 e2 3d 10 ed 8d 3b 1b c3 92 bd a4 a2 d9 bd
       0.11053474 0.0043312386 -0.0716612 -0.10626724
000290 f9 1c cd 3d 3e 89 9b 3d 6a e6 e6 3a 27 7f 35 3e
       0.10015292 0.07594536 0.0017616276 0.17724286
0002a0 60 59 c1 3d 0f d9 90 bc 94 90 2e 3e d2 ef db 3d
       0.09440875 -0.017681627 0.1704734 0.107391015
0002b0 db 65 32 3d 93 b8 02 3e c1 4f ab 3d 3d 3f 78 bd
       0.04355417 0.12765722 0.08364821 -0.060607184
0002c0 56 7a 56 3d 5d 9c e3 3d 25 7d 3a 3e b0 c6 6f 3d
       0.052362762 0.11113808 0.18211801 0.058539093
0002d0 b0 a5 a3 bd bf fe bf 3d 44 30 24 3e f7 30 3f 3e
       -0.07990587 0.09374761 0.16034037 0.18671022
0002e0 97 4f 02 3e 7d 40 05 bd 14 00 72 bd be 83 18 3d
       0.12725674 -0.032532204 -0.059082106 0.037235014
0002f0 c1 c0 2a 3e ae b7 1f 3e f8 38 01 3e 60 53 09 3e
       0.16675092 0.15597412 0.12619388 0.13410711
000300 e0 87 f9 3d 7a b7 19 3e 7d 1b dc 3d 50 9d 9d 3d
       0.12184119 0.15011397 0.107474305 0.076960206
000310 cd 5c e1 3d a2 2d 7f 3d 66 b4 4a 3c 21 bd 5c 3d
       0.110040285 0.06229938 0.012372112 0.053891305
000320 c6 e3 31 bd 87 b6 a1 3d 85 a7 01 3d 2f e6 23 3e
       -0.043430112 0.078961425 0.0316539 0.16005777
000330 25 b2 10 be c2 66 2d bd bf ed a4 bd 7a a5 25 3e
       -0.14130457 -0.042334326 -0.08053159 0.16176406
000340 cd 02 22 3e 74 5f 9a 3c a4 7f 75 3d d6 bc bd bd
       0.15821381 0.018844344 0.05993618 -0.09264533
000350 3a 42 11 3e 24 6e 1b 3e 52 80 3f 3e c8 fc 9a bd
       0.1418542 0.15178734 0.18701294 -0.075677454
000360 ea 52 9c bc e1 75 af 3d 06 3c eb 3d ad b6 ac bd
       -0.019082505 0.085674055 0.11486058 -0.0843328
000370 31 96 03 3e 7b 7d 8b 3d a5 33 b8 bd da 6e bb 3d
       0.12850262 0.06811043 -0.089942254 0.09152003
000380 87 67 c5 3d e4 db 8d 3d ab 74 81 3c 15 ae 8f 3c
       0.09638887 0.069267064 0.015802702 0.017539063
000390 6e 3c bc bc 71 fa 17 3e 31 d8 d2 bd 71 a3 63 bd
       -0.022978034 0.1484163 -0.102951415 -0.05557579
0003a0 e6 cf f2 3b 62 e5 57 3d 6e da ec 3c a3 a4 d9 bd
       0.0074100373 0.05270899 0.02891275 -0.10627105
0003b0 59 e7 39 bc 44 57 5c 3e cb 98 bb bd 0a b4 ff 3d
       -0.0113466615 0.21517664 -0.09160002 0.124855116
0003c0 37 d5 1d 3d 87 df 93 bd 60 45 2b bd 09 2e 21 3d
       0.038533416 -0.07220369 -0.041814208 0.039350543
0003d0 68 f0 08 3e 44 94 17 3d 8f cf 2b 3d 9b 75 cf 3c
       0.13372958 0.03700663 0.04194599 0.025324633
0003e0 65 36 3f bd e4 96 5d 3e 74 94 3f 3b 43 0a 07 be
       -0.046682734 0.21639591 0.0029232772 -0.13187508
0003f0 30 b5 be bd 4c 43 29 3e 13 3f 31 3e 7a b6 c2 bd
       -0.093119025 0.16529578 0.17309217 -0.09507461

fc3.bias f4 [16]
000000 3c 3d c5 bd a9 97 70 3d 7a 12 04 3e 43 ac 42 3e
       -0.0963082 0.058738384 0.12897673 0.19011025
000010 95 01 35 bc 07 66 07 3c 25 c1 1e 3e 4a cf d2 bd
       -0.0110477405 0.008264071 0.15503366 -0.102934435
000020 49 39 f5 bc fd 22 40 3d 60 de 50 bc 38 12 94 3d
       -0.029934542 0.046908367 -0.012748331 0.072300375
000030 b6 79 08 3e 6a a5 77 bd 6c f4 42 3b 57 49 44 bd
       0.13327679 -0.060460486 0.0029747738 -0.047921505
